…
I0119 12:30:20.302964   473 solver.cpp:91] Creating training net from net file: examples/VDSR/VDSR_net.prototxt
I0119 12:30:20.304000   473 net.cpp:322] The NetState phase (0) differed from the phase (1) specified by a rule in layer data
I0119 12:30:20.304327   473 net.cpp:58] Initializing net from parameters: 
name: "VDSR"
state {
  phase: TRAIN
  level: 0
  stage: ""
}
layer {
  name: "data"
  type: "HDF5Data"
  top: "data"
  top: "label"
  include {
    phase: TRAIN
  }
  hdf5_data_param {
    source: "examples/VDSR/train.txt"
    batch_size: 64
  }
}
layer {
  name: "conv1"
  type: "Convolution"
  bottom: "data"
  top: "conv1"
  param {
    lr_mult: 1
  }
  param {
    lr_mult: 0.1
  }
  convolution_param {
    num_output: 64
    pad: 1
    kernel_size: 3
    stride: 1
    weight_filler {
      type: "msra"
    }
    bias_filler {
      type: "constant"
    }
  }
}
layer {
  name: "relu1"
  type: "ReLU"
  bottom: "conv1"
  top: "conv1"
}
layer {
  name: "conv2"
  type: "Convolution"
  bottom: "conv1"
  top: "conv2"
  param {
    lr_mult: 1
  }
  param {
    lr_mult: 0.1
  }
  convolution_param {
    num_output: 64
    pad: 1
    kernel_size: 3
    stride: 1
    weight_filler {
      type: "msra"
    }
    bias_filler {
      type: "constant"
    }
  }
}
layer {
  name: "relu2"
  type: "ReLU"
  bottom: "conv2"
  top: "conv2"
}
layer {
  name: "conv3"
  type: "Convolution"
  bottom: "conv2"
  top: "conv3"
  param {
    lr_mult: 1
  }
  param {
    lr_mult: 0.1
  }
  convolution_param {
    num_output: 64
    pad: 1
    kernel_size: 3
    stride: 1
    weight_filler {
      type: "msra"
    }
    bias_filler {
      type: "constant"
    }
  }
}
layer {
  name: "relu3"
  type: "ReLU"
  bottom: "conv3"
  top: "conv3"
}
layer {
  name: "conv4"
  type: "Convolution"
  bottom: "conv3"
  top: "conv4"
  param {
    lr_mult: 1
  }
  param {
    lr_mult: 0.1
  }
  convolution_param {
    num_output: 64
    pad: 1
    kernel_size: 3
    stride: 1
    weight_filler {
      type: "msra"
    }
    bias_filler {
      type: "constant"
    }
  }
}
layer {
  name: "relu4"
  type: "ReLU"
  bottom: "conv4"
  top: "conv4"
}
layer {
  name: "conv5"
  type: "Convolution"
  bottom: "conv4"
  top: "conv5"
  param {
    lr_mult: 1
  }
  param {
    lr_mult: 0.1
  }
  convolution_param {
    num_output: 64
    pad: 1
    kernel_size: 3
    stride: 1
    weight_filler {
      type: "msra"
    }
    bias_filler {
      type: "constant"
    }
  }
}
layer {
  name: "relu5"
  type: "ReLU"
  bottom: "conv5"
  top: "conv5"
}
layer {
  name: "conv6"
  type: "Convolution"
  bottom: "conv5"
  top: "conv6"
  param {
    lr_mult: 1
  }
  param {
    lr_mult: 0.1
  }
  convolution_param {
    num_output: 64
    pad: 1
    kernel_size: 3
    stride: 1
    weight_filler {
      type: "msra"
    }
    bias_filler {
      type: "constant"
    }
  }
}
layer {
  name: "relu6"
  type: "ReLU"
  bottom: "conv6"
  top: "conv6"
}
layer {
  name: "conv7"
  type: "Convolution"
  bottom: "conv6"
  top: "conv7"
  param {
    lr_mult: 1
  }
  param {
    lr_mult: 0.1
  }
  convolution_param {
    num_output: 64
    pad: 1
    kernel_size: 3
    stride: 1
    weight_filler {
      type: "msra"
    }
    bias_filler {
      type: "constant"
    }
  }
}
layer {
  name: "relu7"
  type: "ReLU"
  bottom: "conv7"
  top: "conv7"
}
layer {
  name: "conv8"
  type: "Convolution"
  bottom: "conv7"
  top: "conv8"
  param {
    lr_mult: 1
  }
  param {
    lr_mult: 0.1
  }
  convolution_param {
    num_output: 64
    pad: 1
    kernel_size: 3
    stride: 1
    weight_filler {
      type: "msra"
    }
    bias_filler {
      type: "constant"
    }
  }
}
layer {
  name: "relu8"
  type: "ReLU"
  bottom: "conv8"
  top: "conv8"
}
layer {
  name: "conv9"
  type: "Convolution"
  bottom: "conv8"
  top: "conv9"
  param {
    lr_mult: 1
  }
  param {
    lr_mult: 0.1
  }
  convolution_param {
    num_output: 64
    pad: 1
    kernel_size: 3
    stride: 1
    weight_filler {
      type: "msra"
    }
    bias_filler {
      type: "constant"
    }
  }
}
layer {
  name: "relu9"
  type: "ReLU"
  bottom: "conv9"
  top: "conv9"
}
layer {
  name: "conv10"
  type: "Convolution"
  bottom: "conv9"
  top: "conv10"
  param {
    lr_mult: 1
  }
  param {
    lr_mult: 0.1
  }
  convolution_param {
    num_output: 64
    pad: 1
    kernel_size: 3
    stride: 1
    weight_filler {
      type: "msra"
    }
    bias_filler {
      type: "constant"
    }
  }
}
layer {
  name: "relu10"
  type: "ReLU"
  bottom: "conv10"
  top: "conv10"
}
layer {
  name: "conv11"
  type: "Convolution"
  bottom: "conv10"
  top: "conv11"
  param {
    lr_mult: 1
  }
  param {
    lr_mult: 0.1
  }
  convolution_param {
    num_output: 64
    pad: 1
    kernel_size: 3
    stride: 1
    weight_filler {
      type: "msra"
    }
    bias_filler {
      type: "constant"
    }
  }
}
layer {
  name: "relu11"
  type: "ReLU"
  bottom: "conv11"
  top: "conv11"
}
layer {
  name: "conv12"
  type: "Convolution"
  bottom: "conv11"
  top: "conv12"
  param {
    lr_mult: 1
  }
  param {
    lr_mult: 0.1
  }
  convolution_param {
    num_output: 64
    pad: 1
    kernel_size: 3
    stride: 1
    weight_filler {
      type: "msra"
    }
    bias_filler {
      type: "constant"
    }
  }
}
layer {
  name: "relu12"
  type: "ReLU"
  bottom: "conv12"
  top: "conv12"
}
layer {
  name: "conv13"
  type: "Convolution"
  bottom: "conv12"
  top: "conv13"
  param {
    lr_mult: 1
  }
  param {
    lr_mult: 0.1
  }
  convolution_param {
    num_output: 64
    pad: 1
    kernel_size: 3
    stride: 1
    weight_filler {
      type: "msra"
    }
    bias_filler {
      type: "constant"
    }
  }
}
layer {
  name: "relu13"
  type: "ReLU"
  bottom: "conv13"
  top: "conv13"
}
layer {
  name: "conv14"
  type: "Convolution"
  bottom: "conv13"
  top: "conv14"
  param {
    lr_mult: 1
  }
  param {
    lr_mult: 0.1
  }
  convolution_param {
    num_output: 64
    pad: 1
    kernel_size: 3
    stride: 1
    weight_filler {
      type: "msra"
    }
    bias_filler {
      type: "constant"
    }
  }
}
layer {
  name: "relu14"
  type: "ReLU"
  bottom: "conv14"
  top: "conv14"
}
layer {
  name: "conv15"
  type: "Convolution"
  bottom: "conv14"
  top: "conv15"
  param {
    lr_mult: 1
  }
  param {
    lr_mult: 0.1
  }
  convolution_param {
    num_output: 64
    pad: 1
    kernel_size: 3
    stride: 1
    weight_filler {
      type: "msra"
    }
    bias_filler {
      type: "constant"
    }
  }
}
layer {
  name: "relu15"
  type: "ReLU"
  bottom: "conv15"
  top: "conv15"
}
layer {
  name: "conv16"
  type: "Convolution"
  bottom: "conv15"
  top: "conv16"
  param {
    lr_mult: 1
  }
  param {
    lr_mult: 0.1
  }
  convolution_param {
    num_output: 64
    pad: 1
    kernel_size: 3
    stride: 1
    weight_filler {
      type: "msra"
    }
    bias_filler {
      type: "constant"
    }
  }
}
layer {
  name: "relu16"
  type: "ReLU"
  bottom: "conv16"
  top: "conv16"
}
layer {
  name: "conv17"
  type: "Convolution"
  bottom: "conv16"
  top: "conv17"
  param {
    lr_mult: 1
  }
  param {
    lr_mult: 0.1
  }
  convolution_param {
    num_output: 64
    pad: 1
    kernel_size: 3
    stride: 1
    weight_filler {
      type: "msra"
    }
    bias_filler {
      type: "constant"
    }
  }
}
layer {
  name: "relu17"
  type: "ReLU"
  bottom: "conv17"
  top: "conv17"
}
layer {
  name: "conv18"
  type: "Convolution"
  bottom: "conv17"
  top: "conv18"
  param {
    lr_mult: 1
  }
  param {
    lr_mult: 0.1
  }
  convolution_param {
    num_output: 64
    pad: 1
    kernel_size: 3
    stride: 1
    weight_filler {
      type: "msra"
    }
    bias_filler {
      type: "constant"
    }
  }
}
layer {
  name: "relu18"
  type: "ReLU"
  bottom: "conv18"
  top: "conv18"
}
layer {
  name: "conv19"
  type: "Convolution"
  bottom: "conv18"
  top: "conv19"
  param {
    lr_mult: 1
  }
  param {
    lr_mult: 0.1
  }
  convolution_param {
    num_output: 64
    pad: 1
    kernel_size: 3
    stride: 1
    weight_filler {
      type: "msra"
    }
    bias_filler {
      type: "constant"
    }
  }
}
layer {
  name: "relu19"
  type: "ReLU"
  bottom: "conv19"
  top: "conv19"
}
layer {
  name: "conv20"
  type: "Convolution"
  bottom: "conv19"
  top: "conv20"
  param {
    lr_mult: 1
  }
  param {
    lr_mult: 0.1
  }
  convolution_param {
    num_output: 1
    pad: 1
    kernel_size: 3
    stride: 1
    weight_filler {
      type: "msra"
    }
    bias_filler {
      type: "constant"
    }
  }
}
layer {
  name: "sum"
  type: "Eltwise"
  bottom: "data"
  bottom: "conv20"
  top: "sum"
  eltwise_param {
    operation: SUM
  }
}
layer {
  name: "loss"
  type: "EuclideanLoss"
  bottom: "sum"
  bottom: "label"
  top: "loss"
}
I0119 12:30:20.304584   473 layer_factory.hpp:77] Creating layer data
I0119 12:30:20.304610   473 net.cpp:100] Creating Layer data
I0119 12:30:20.304622   473 net.cpp:408] data -> data
I0119 12:30:20.304649   473 net.cpp:408] data -> label
I0119 12:30:20.304667   473 hdf5_data_layer.cpp:79] Loading list of HDF5 filenames from: examples/VDSR/train.txt
I0119 12:30:20.304708   473 hdf5_data_layer.cpp:93] Number of HDF5 files: 1
I0119 12:30:20.305639   473 hdf5.cpp:32] Datatype class: H5T_FLOAT
I0119 12:31:59.129370   473 net.cpp:150] Setting up data
I0119 12:31:59.130962   473 net.cpp:157] Top shape: 64 1 41 41 (107584)
I0119 12:31:59.130991   473 net.cpp:157] Top shape: 64 1 41 41 (107584)
I0119 12:31:59.131000   473 net.cpp:165] Memory required for data: 860672
I0119 12:31:59.131011   473 layer_factory.hpp:77] Creating layer data_data_0_split
I0119 12:31:59.131032   473 net.cpp:100] Creating Layer data_data_0_split
I0119 12:31:59.131042   473 net.cpp:434] data_data_0_split <- data
I0119 12:31:59.131057   473 net.cpp:408] data_data_0_split -> data_data_0_split_0
I0119 12:31:59.131074   473 net.cpp:408] data_data_0_split -> data_data_0_split_1
I0119 12:31:59.131114   473 net.cpp:150] Setting up data_data_0_split
I0119 12:31:59.131129   473 net.cpp:157] Top shape: 64 1 41 41 (107584)
I0119 12:31:59.131150   473 net.cpp:157] Top shape: 64 1 41 41 (107584)
I0119 12:31:59.131157   473 net.cpp:165] Memory required for data: 1721344
I0119 12:31:59.131165   473 layer_factory.hpp:77] Creating layer conv1
I0119 12:31:59.131196   473 net.cpp:100] Creating Layer conv1
I0119 12:31:59.131206   473 net.cpp:434] conv1 <- data_data_0_split_0
I0119 12:31:59.131217   473 net.cpp:408] conv1 -> conv1
I0119 12:31:59.316944   473 net.cpp:150] Setting up conv1
I0119 12:31:59.316974   473 net.cpp:157] Top shape: 64 64 41 41 (6885376)
I0119 12:31:59.316982   473 net.cpp:165] Memory required for data: 29262848
I0119 12:31:59.317004   473 layer_factory.hpp:77] Creating layer relu1
I0119 12:31:59.317021   473 net.cpp:100] Creating Layer relu1
I0119 12:31:59.317030   473 net.cpp:434] relu1 <- conv1
I0119 12:31:59.317040   473 net.cpp:395] relu1 -> conv1 (in-place)
I0119 12:31:59.317337   473 net.cpp:150] Setting up relu1
I0119 12:31:59.317350   473 net.cpp:157] Top shape: 64 64 41 41 (6885376)
I0119 12:31:59.317356   473 net.cpp:165] Memory required for data: 56804352
I0119 12:31:59.317363   473 layer_factory.hpp:77] Creating layer conv2
I0119 12:31:59.317383   473 net.cpp:100] Creating Layer conv2
I0119 12:31:59.317391   473 net.cpp:434] conv2 <- conv1
I0119 12:31:59.317401   473 net.cpp:408] conv2 -> conv2
I0119 12:31:59.319548   473 net.cpp:150] Setting up conv2
I0119 12:31:59.319564   473 net.cpp:157] Top shape: 64 64 41 41 (6885376)
I0119 12:31:59.319571   473 net.cpp:165] Memory required for data: 84345856
I0119 12:31:59.319584   473 layer_factory.hpp:77] Creating layer relu2
I0119 12:31:59.319595   473 net.cpp:100] Creating Layer relu2
I0119 12:31:59.319607   473 net.cpp:434] relu2 <- conv2
I0119 12:31:59.319615   473 net.cpp:395] relu2 -> conv2 (in-place)
I0119 12:31:59.319761   473 net.cpp:150] Setting up relu2
I0119 12:31:59.319774   473 net.cpp:157] Top shape: 64 64 41 41 (6885376)
I0119 12:31:59.319780   473 net.cpp:165] Memory required for data: 111887360
I0119 12:31:59.319787   473 layer_factory.hpp:77] Creating layer conv3
I0119 12:31:59.319802   473 net.cpp:100] Creating Layer conv3
I0119 12:31:59.319809   473 net.cpp:434] conv3 <- conv2
I0119 12:31:59.319820   473 net.cpp:408] conv3 -> conv3
I0119 12:31:59.321552   473 net.cpp:150] Setting up conv3
I0119 12:31:59.321568   473 net.cpp:157] Top shape: 64 64 41 41 (6885376)
I0119 12:31:59.321573   473 net.cpp:165] Memory required for data: 139428864
I0119 12:31:59.321588   473 layer_factory.hpp:77] Creating layer relu3
I0119 12:31:59.321596   473 net.cpp:100] Creating Layer relu3
I0119 12:31:59.321604   473 net.cpp:434] relu3 <- conv3
I0119 12:31:59.321611   473 net.cpp:395] relu3 -> conv3 (in-place)
I0119 12:31:59.321758   473 net.cpp:150] Setting up relu3
I0119 12:31:59.321769   473 net.cpp:157] Top shape: 64 64 41 41 (6885376)
I0119 12:31:59.321774   473 net.cpp:165] Memory required for data: 166970368
I0119 12:31:59.321781   473 layer_factory.hpp:77] Creating layer conv4
I0119 12:31:59.321796   473 net.cpp:100] Creating Layer conv4
I0119 12:31:59.321805   473 net.cpp:434] conv4 <- conv3
I0119 12:31:59.321815   473 net.cpp:408] conv4 -> conv4
I0119 12:31:59.323570   473 net.cpp:150] Setting up conv4
I0119 12:31:59.323585   473 net.cpp:157] Top shape: 64 64 41 41 (6885376)
I0119 12:31:59.323592   473 net.cpp:165] Memory required for data: 194511872
I0119 12:31:59.323617   473 layer_factory.hpp:77] Creating layer relu4
I0119 12:31:59.323629   473 net.cpp:100] Creating Layer relu4
I0119 12:31:59.323637   473 net.cpp:434] relu4 <- conv4
I0119 12:31:59.323647   473 net.cpp:395] relu4 -> conv4 (in-place)
I0119 12:31:59.323933   473 net.cpp:150] Setting up relu4
I0119 12:31:59.323946   473 net.cpp:157] Top shape: 64 64 41 41 (6885376)
I0119 12:31:59.323952   473 net.cpp:165] Memory required for data: 222053376
I0119 12:31:59.323961   473 layer_factory.hpp:77] Creating layer conv5
I0119 12:31:59.323974   473 net.cpp:100] Creating Layer conv5
I0119 12:31:59.323984   473 net.cpp:434] conv5 <- conv4
I0119 12:31:59.323994   473 net.cpp:408] conv5 -> conv5
I0119 12:31:59.325798   473 net.cpp:150] Setting up conv5
I0119 12:31:59.325814   473 net.cpp:157] Top shape: 64 64 41 41 (6885376)
I0119 12:31:59.325819   473 net.cpp:165] Memory required for data: 249594880
I0119 12:31:59.325834   473 layer_factory.hpp:77] Creating layer relu5
I0119 12:31:59.325845   473 net.cpp:100] Creating Layer relu5
I0119 12:31:59.325855   473 net.cpp:434] relu5 <- conv5
I0119 12:31:59.325863   473 net.cpp:395] relu5 -> conv5 (in-place)
I0119 12:31:59.326009   473 net.cpp:150] Setting up relu5
I0119 12:31:59.326020   473 net.cpp:157] Top shape: 64 64 41 41 (6885376)
I0119 12:31:59.326026   473 net.cpp:165] Memory required for data: 277136384
I0119 12:31:59.326033   473 layer_factory.hpp:77] Creating layer conv6
I0119 12:31:59.326046   473 net.cpp:100] Creating Layer conv6
I0119 12:31:59.326055   473 net.cpp:434] conv6 <- conv5
I0119 12:31:59.326064   473 net.cpp:408] conv6 -> conv6
I0119 12:31:59.327826   473 net.cpp:150] Setting up conv6
I0119 12:31:59.327841   473 net.cpp:157] Top shape: 64 64 41 41 (6885376)
I0119 12:31:59.327847   473 net.cpp:165] Memory required for data: 304677888
I0119 12:31:59.327857   473 layer_factory.hpp:77] Creating layer relu6
I0119 12:31:59.327867   473 net.cpp:100] Creating Layer relu6
I0119 12:31:59.327873   473 net.cpp:434] relu6 <- conv6
I0119 12:31:59.327882   473 net.cpp:395] relu6 -> conv6 (in-place)
I0119 12:31:59.328032   473 net.cpp:150] Setting up relu6
I0119 12:31:59.328044   473 net.cpp:157] Top shape: 64 64 41 41 (6885376)
I0119 12:31:59.328049   473 net.cpp:165] Memory required for data: 332219392
I0119 12:31:59.328057   473 layer_factory.hpp:77] Creating layer conv7
I0119 12:31:59.328070   473 net.cpp:100] Creating Layer conv7
I0119 12:31:59.328079   473 net.cpp:434] conv7 <- conv6
I0119 12:31:59.328089   473 net.cpp:408] conv7 -> conv7
I0119 12:31:59.329833   473 net.cpp:150] Setting up conv7
I0119 12:31:59.329848   473 net.cpp:157] Top shape: 64 64 41 41 (6885376)
I0119 12:31:59.329854   473 net.cpp:165] Memory required for data: 359760896
I0119 12:31:59.329865   473 layer_factory.hpp:77] Creating layer relu7
I0119 12:31:59.329874   473 net.cpp:100] Creating Layer relu7
I0119 12:31:59.329882   473 net.cpp:434] relu7 <- conv7
I0119 12:31:59.329891   473 net.cpp:395] relu7 -> conv7 (in-place)
I0119 12:31:59.330178   473 net.cpp:150] Setting up relu7
I0119 12:31:59.330191   473 net.cpp:157] Top shape: 64 64 41 41 (6885376)
I0119 12:31:59.330199   473 net.cpp:165] Memory required for data: 387302400
I0119 12:31:59.330205   473 layer_factory.hpp:77] Creating layer conv8
I0119 12:31:59.330247   473 net.cpp:100] Creating Layer conv8
I0119 12:31:59.330256   473 net.cpp:434] conv8 <- conv7
I0119 12:31:59.330267   473 net.cpp:408] conv8 -> conv8
I0119 12:31:59.332020   473 net.cpp:150] Setting up conv8
I0119 12:31:59.332036   473 net.cpp:157] Top shape: 64 64 41 41 (6885376)
I0119 12:31:59.332041   473 net.cpp:165] Memory required for data: 414843904
I0119 12:31:59.332052   473 layer_factory.hpp:77] Creating layer relu8
I0119 12:31:59.332062   473 net.cpp:100] Creating Layer relu8
I0119 12:31:59.332072   473 net.cpp:434] relu8 <- conv8
I0119 12:31:59.332080   473 net.cpp:395] relu8 -> conv8 (in-place)
I0119 12:31:59.332362   473 net.cpp:150] Setting up relu8
I0119 12:31:59.332376   473 net.cpp:157] Top shape: 64 64 41 41 (6885376)
I0119 12:31:59.332382   473 net.cpp:165] Memory required for data: 442385408
I0119 12:31:59.332401   473 layer_factory.hpp:77] Creating layer conv9
I0119 12:31:59.332417   473 net.cpp:100] Creating Layer conv9
I0119 12:31:59.332425   473 net.cpp:434] conv9 <- conv8
I0119 12:31:59.332435   473 net.cpp:408] conv9 -> conv9
I0119 12:31:59.334563   473 net.cpp:150] Setting up conv9
I0119 12:31:59.334578   473 net.cpp:157] Top shape: 64 64 41 41 (6885376)
I0119 12:31:59.334584   473 net.cpp:165] Memory required for data: 469926912
I0119 12:31:59.334599   473 layer_factory.hpp:77] Creating layer relu9
I0119 12:31:59.334609   473 net.cpp:100] Creating Layer relu9
I0119 12:31:59.334617   473 net.cpp:434] relu9 <- conv9
I0119 12:31:59.334626   473 net.cpp:395] relu9 -> conv9 (in-place)
I0119 12:31:59.334776   473 net.cpp:150] Setting up relu9
I0119 12:31:59.334789   473 net.cpp:157] Top shape: 64 64 41 41 (6885376)
I0119 12:31:59.334794   473 net.cpp:165] Memory required for data: 497468416
I0119 12:31:59.334800   473 layer_factory.hpp:77] Creating layer conv10
I0119 12:31:59.334815   473 net.cpp:100] Creating Layer conv10
I0119 12:31:59.334822   473 net.cpp:434] conv10 <- conv9
I0119 12:31:59.334832   473 net.cpp:408] conv10 -> conv10
I0119 12:31:59.336576   473 net.cpp:150] Setting up conv10
I0119 12:31:59.336591   473 net.cpp:157] Top shape: 64 64 41 41 (6885376)
I0119 12:31:59.336597   473 net.cpp:165] Memory required for data: 525009920
I0119 12:31:59.336608   473 layer_factory.hpp:77] Creating layer relu10
I0119 12:31:59.336618   473 net.cpp:100] Creating Layer relu10
I0119 12:31:59.336627   473 net.cpp:434] relu10 <- conv10
I0119 12:31:59.336635   473 net.cpp:395] relu10 -> conv10 (in-place)
I0119 12:31:59.336922   473 net.cpp:150] Setting up relu10
I0119 12:31:59.336935   473 net.cpp:157] Top shape: 64 64 41 41 (6885376)
I0119 12:31:59.336941   473 net.cpp:165] Memory required for data: 552551424
I0119 12:31:59.336948   473 layer_factory.hpp:77] Creating layer conv11
I0119 12:31:59.336962   473 net.cpp:100] Creating Layer conv11
I0119 12:31:59.336971   473 net.cpp:434] conv11 <- conv10
I0119 12:31:59.336982   473 net.cpp:408] conv11 -> conv11
I0119 12:31:59.338752   473 net.cpp:150] Setting up conv11
I0119 12:31:59.338768   473 net.cpp:157] Top shape: 64 64 41 41 (6885376)
I0119 12:31:59.338774   473 net.cpp:165] Memory required for data: 580092928
I0119 12:31:59.338785   473 layer_factory.hpp:77] Creating layer relu11
I0119 12:31:59.338795   473 net.cpp:100] Creating Layer relu11
I0119 12:31:59.338804   473 net.cpp:434] relu11 <- conv11
I0119 12:31:59.338812   473 net.cpp:395] relu11 -> conv11 (in-place)
I0119 12:31:59.338959   473 net.cpp:150] Setting up relu11
I0119 12:31:59.338971   473 net.cpp:157] Top shape: 64 64 41 41 (6885376)
I0119 12:31:59.338977   473 net.cpp:165] Memory required for data: 607634432
I0119 12:31:59.338984   473 layer_factory.hpp:77] Creating layer conv12
I0119 12:31:59.338997   473 net.cpp:100] Creating Layer conv12
I0119 12:31:59.339006   473 net.cpp:434] conv12 <- conv11
I0119 12:31:59.339016   473 net.cpp:408] conv12 -> conv12
I0119 12:31:59.340788   473 net.cpp:150] Setting up conv12
I0119 12:31:59.340803   473 net.cpp:157] Top shape: 64 64 41 41 (6885376)
I0119 12:31:59.340809   473 net.cpp:165] Memory required for data: 635175936
I0119 12:31:59.340821   473 layer_factory.hpp:77] Creating layer relu12
I0119 12:31:59.340831   473 net.cpp:100] Creating Layer relu12
I0119 12:31:59.340838   473 net.cpp:434] relu12 <- conv12
I0119 12:31:59.340847   473 net.cpp:395] relu12 -> conv12 (in-place)
I0119 12:31:59.340999   473 net.cpp:150] Setting up relu12
I0119 12:31:59.341012   473 net.cpp:157] Top shape: 64 64 41 41 (6885376)
I0119 12:31:59.341017   473 net.cpp:165] Memory required for data: 662717440
I0119 12:31:59.341023   473 layer_factory.hpp:77] Creating layer conv13
I0119 12:31:59.341037   473 net.cpp:100] Creating Layer conv13
I0119 12:31:59.341047   473 net.cpp:434] conv13 <- conv12
I0119 12:31:59.341056   473 net.cpp:408] conv13 -> conv13
I0119 12:31:59.342854   473 net.cpp:150] Setting up conv13
I0119 12:31:59.342870   473 net.cpp:157] Top shape: 64 64 41 41 (6885376)
I0119 12:31:59.342890   473 net.cpp:165] Memory required for data: 690258944
I0119 12:31:59.342901   473 layer_factory.hpp:77] Creating layer relu13
I0119 12:31:59.342913   473 net.cpp:100] Creating Layer relu13
I0119 12:31:59.342922   473 net.cpp:434] relu13 <- conv13
I0119 12:31:59.342931   473 net.cpp:395] relu13 -> conv13 (in-place)
I0119 12:31:59.343227   473 net.cpp:150] Setting up relu13
I0119 12:31:59.343241   473 net.cpp:157] Top shape: 64 64 41 41 (6885376)
I0119 12:31:59.343247   473 net.cpp:165] Memory required for data: 717800448
I0119 12:31:59.343255   473 layer_factory.hpp:77] Creating layer conv14
I0119 12:31:59.343268   473 net.cpp:100] Creating Layer conv14
I0119 12:31:59.343277   473 net.cpp:434] conv14 <- conv13
I0119 12:31:59.343288   473 net.cpp:408] conv14 -> conv14
I0119 12:31:59.345094   473 net.cpp:150] Setting up conv14
I0119 12:31:59.345109   473 net.cpp:157] Top shape: 64 64 41 41 (6885376)
I0119 12:31:59.345116   473 net.cpp:165] Memory required for data: 745341952
I0119 12:31:59.345129   473 layer_factory.hpp:77] Creating layer relu14
I0119 12:31:59.345139   473 net.cpp:100] Creating Layer relu14
I0119 12:31:59.345145   473 net.cpp:434] relu14 <- conv14
I0119 12:31:59.345156   473 net.cpp:395] relu14 -> conv14 (in-place)
I0119 12:31:59.345310   473 net.cpp:150] Setting up relu14
I0119 12:31:59.345324   473 net.cpp:157] Top shape: 64 64 41 41 (6885376)
I0119 12:31:59.345330   473 net.cpp:165] Memory required for data: 772883456
I0119 12:31:59.345336   473 layer_factory.hpp:77] Creating layer conv15
I0119 12:31:59.345352   473 net.cpp:100] Creating Layer conv15
I0119 12:31:59.345362   473 net.cpp:434] conv15 <- conv14
I0119 12:31:59.345371   473 net.cpp:408] conv15 -> conv15
I0119 12:31:59.347199   473 net.cpp:150] Setting up conv15
I0119 12:31:59.347214   473 net.cpp:157] Top shape: 64 64 41 41 (6885376)
I0119 12:31:59.347221   473 net.cpp:165] Memory required for data: 800424960
I0119 12:31:59.347234   473 layer_factory.hpp:77] Creating layer relu15
I0119 12:31:59.347244   473 net.cpp:100] Creating Layer relu15
I0119 12:31:59.347251   473 net.cpp:434] relu15 <- conv15
I0119 12:31:59.347264   473 net.cpp:395] relu15 -> conv15 (in-place)
I0119 12:31:59.347421   473 net.cpp:150] Setting up relu15
I0119 12:31:59.347434   473 net.cpp:157] Top shape: 64 64 41 41 (6885376)
I0119 12:31:59.347440   473 net.cpp:165] Memory required for data: 827966464
I0119 12:31:59.347447   473 layer_factory.hpp:77] Creating layer conv16
I0119 12:31:59.347465   473 net.cpp:100] Creating Layer conv16
I0119 12:31:59.347475   473 net.cpp:434] conv16 <- conv15
I0119 12:31:59.347486   473 net.cpp:408] conv16 -> conv16
I0119 12:31:59.349658   473 net.cpp:150] Setting up conv16
I0119 12:31:59.349674   473 net.cpp:157] Top shape: 64 64 41 41 (6885376)
I0119 12:31:59.349681   473 net.cpp:165] Memory required for data: 855507968
I0119 12:31:59.349692   473 layer_factory.hpp:77] Creating layer relu16
I0119 12:31:59.349702   473 net.cpp:100] Creating Layer relu16
I0119 12:31:59.349715   473 net.cpp:434] relu16 <- conv16
I0119 12:31:59.349725   473 net.cpp:395] relu16 -> conv16 (in-place)
I0119 12:31:59.350164   473 net.cpp:150] Setting up relu16
I0119 12:31:59.350178   473 net.cpp:157] Top shape: 64 64 41 41 (6885376)
I0119 12:31:59.350185   473 net.cpp:165] Memory required for data: 883049472
I0119 12:31:59.350193   473 layer_factory.hpp:77] Creating layer conv17
I0119 12:31:59.350208   473 net.cpp:100] Creating Layer conv17
I0119 12:31:59.350235   473 net.cpp:434] conv17 <- conv16
I0119 12:31:59.350250   473 net.cpp:408] conv17 -> conv17
I0119 12:31:59.352077   473 net.cpp:150] Setting up conv17
I0119 12:31:59.352092   473 net.cpp:157] Top shape: 64 64 41 41 (6885376)
I0119 12:31:59.352098   473 net.cpp:165] Memory required for data: 910590976
I0119 12:31:59.352115   473 layer_factory.hpp:77] Creating layer relu17
I0119 12:31:59.352128   473 net.cpp:100] Creating Layer relu17
I0119 12:31:59.352135   473 net.cpp:434] relu17 <- conv17
I0119 12:31:59.352144   473 net.cpp:395] relu17 -> conv17 (in-place)
I0119 12:31:59.352311   473 net.cpp:150] Setting up relu17
I0119 12:31:59.352325   473 net.cpp:157] Top shape: 64 64 41 41 (6885376)
I0119 12:31:59.352331   473 net.cpp:165] Memory required for data: 938132480
I0119 12:31:59.352339   473 layer_factory.hpp:77] Creating layer conv18
I0119 12:31:59.352354   473 net.cpp:100] Creating Layer conv18
I0119 12:31:59.352362   473 net.cpp:434] conv18 <- conv17
I0119 12:31:59.352371   473 net.cpp:408] conv18 -> conv18
I0119 12:31:59.354193   473 net.cpp:150] Setting up conv18
I0119 12:31:59.354209   473 net.cpp:157] Top shape: 64 64 41 41 (6885376)
I0119 12:31:59.354238   473 net.cpp:165] Memory required for data: 965673984
I0119 12:31:59.354252   473 layer_factory.hpp:77] Creating layer relu18
I0119 12:31:59.354264   473 net.cpp:100] Creating Layer relu18
I0119 12:31:59.354271   473 net.cpp:434] relu18 <- conv18
I0119 12:31:59.354281   473 net.cpp:395] relu18 -> conv18 (in-place)
I0119 12:31:59.354436   473 net.cpp:150] Setting up relu18
I0119 12:31:59.354449   473 net.cpp:157] Top shape: 64 64 41 41 (6885376)
I0119 12:31:59.354454   473 net.cpp:165] Memory required for data: 993215488
I0119 12:31:59.354461   473 layer_factory.hpp:77] Creating layer conv19
I0119 12:31:59.354475   473 net.cpp:100] Creating Layer conv19
I0119 12:31:59.354485   473 net.cpp:434] conv19 <- conv18
I0119 12:31:59.354495   473 net.cpp:408] conv19 -> conv19
I0119 12:31:59.356323   473 net.cpp:150] Setting up conv19
I0119 12:31:59.356339   473 net.cpp:157] Top shape: 64 64 41 41 (6885376)
I0119 12:31:59.356346   473 net.cpp:165] Memory required for data: 1020756992
I0119 12:31:59.356356   473 layer_factory.hpp:77] Creating layer relu19
I0119 12:31:59.356367   473 net.cpp:100] Creating Layer relu19
I0119 12:31:59.356375   473 net.cpp:434] relu19 <- conv19
I0119 12:31:59.356387   473 net.cpp:395] relu19 -> conv19 (in-place)
I0119 12:31:59.356698   473 net.cpp:150] Setting up relu19
I0119 12:31:59.356711   473 net.cpp:157] Top shape: 64 64 41 41 (6885376)
I0119 12:31:59.356717   473 net.cpp:165] Memory required for data: 1048298496
I0119 12:31:59.356724   473 layer_factory.hpp:77] Creating layer conv20
I0119 12:31:59.356739   473 net.cpp:100] Creating Layer conv20
I0119 12:31:59.356750   473 net.cpp:434] conv20 <- conv19
I0119 12:31:59.356761   473 net.cpp:408] conv20 -> conv20
I0119 12:31:59.357740   473 net.cpp:150] Setting up conv20
I0119 12:31:59.357756   473 net.cpp:157] Top shape: 64 1 41 41 (107584)
I0119 12:31:59.357763   473 net.cpp:165] Memory required for data: 1048728832
I0119 12:31:59.357772   473 layer_factory.hpp:77] Creating layer sum
I0119 12:31:59.357784   473 net.cpp:100] Creating Layer sum
I0119 12:31:59.357791   473 net.cpp:434] sum <- data_data_0_split_1
I0119 12:31:59.357800   473 net.cpp:434] sum <- conv20
I0119 12:31:59.357811   473 net.cpp:408] sum -> sum
I0119 12:31:59.357856   473 net.cpp:150] Setting up sum
I0119 12:31:59.357870   473 net.cpp:157] Top shape: 64 1 41 41 (107584)
I0119 12:31:59.357877   473 net.cpp:165] Memory required for data: 1049159168
I0119 12:31:59.357885   473 layer_factory.hpp:77] Creating layer loss
I0119 12:31:59.357897   473 net.cpp:100] Creating Layer loss
I0119 12:31:59.357910   473 net.cpp:434] loss <- sum
I0119 12:31:59.357918   473 net.cpp:434] loss <- label
I0119 12:31:59.357928   473 net.cpp:408] loss -> loss
I0119 12:31:59.357977   473 net.cpp:150] Setting up loss
…
I0119 12:31:59.358383   473 net.cpp:283] Network initialization done.
I0119 12:31:59.359050   473 solver.cpp:181] Creating test net (#0) specified by net file: examples/VDSR/VDSR_net.prototxt
I0119 12:31:59.359104   473 net.cpp:322] The NetState phase (1) differed from the phase (0) specified by a rule in layer data
I0119 12:31:59.359280   473 net.cpp:58] Initializing net from parameters: 
name: "VDSR"
state {
  phase: TEST
}
layer {
  name: "data"
  type: "HDF5Data"
  top: "data"
  top: "label"
  include {
    phase: TEST
  }
  hdf5_data_param {
    source: "examples/VDSR/test.txt"
    batch_size: 2
  }
}
layer {
  name: "conv1"
  type: "Convolution"
  bottom: "data"
  top: "conv1"
  param {
    lr_mult: 1
  }
  param {
    lr_mult: 0.1
  }
  convolution_param {
    num_output: 64
    pad: 1
    kernel_size: 3
    stride: 1
    weight_filler {
      type: "msra"
    }
    bias_filler {
      type: "constant"
    }
  }
}
layer {
  name: "relu1"
  type: "ReLU"
  bottom: "conv1"
  top: "conv1"
}
layer {
  name: "conv2"
  type: "Convolution"
  bottom: "conv1"
  top: "conv2"
  param {
    lr_mult: 1
  }
  param {
    lr_mult: 0.1
  }
  convolution_param {
    num_output: 64
    pad: 1
    kernel_size: 3
    stride: 1
    weight_filler {
      type: "msra"
    }
    bias_filler {
      type: "constant"
    }
  }
}
layer {
  name: "relu2"
  type: "ReLU"
  bottom: "conv2"
  top: "conv2"
}
layer {
  name: "conv3"
  type: "Convolution"
  bottom: "conv2"
  top: "conv3"
  param {
    lr_mult: 1
  }
  param {
    lr_mult: 0.1
  }
  convolution_param {
    num_output: 64
    pad: 1
    kernel_size: 3
    stride: 1
    weight_filler {
      type: "msra"
    }
    bias_filler {
      type: "constant"
    }
  }
}
layer {
  name: "relu3"
  type: "ReLU"
  bottom: "conv3"
  top: "conv3"
}
layer {
  name: "conv4"
  type: "Convolution"
  bottom: "conv3"
  top: "conv4"
  param {
    lr_mult: 1
  }
  param {
    lr_mult: 0.1
  }
  convolution_param {
    num_output: 64
    pad: 1
    kernel_size: 3
    stride: 1
    weight_filler {
      type: "msra"
    }
    bias_filler {
      type: "constant"
    }
  }
}
layer {
  name: "relu4"
  type: "ReLU"
  bottom: "conv4"
  top: "conv4"
}
layer {
  name: "conv5"
  type: "Convolution"
  bottom: "conv4"
  top: "conv5"
  param {
    lr_mult: 1
  }
  param {
    lr_mult: 0.1
  }
  convolution_param {
    num_output: 64
    pad: 1
    kernel_size: 3
    stride: 1
    weight_filler {
      type: "msra"
    }
    bias_filler {
      type: "constant"
    }
  }
}
layer {
  name: "relu5"
  type: "ReLU"
  bottom: "conv5"
  top: "conv5"
}
layer {
  name: "conv6"
  type: "Convolution"
  bottom: "conv5"
  top: "conv6"
  param {
    lr_mult: 1
  }
  param {
    lr_mult: 0.1
  }
  convolution_param {
    num_output: 64
    pad: 1
    kernel_size: 3
    stride: 1
    weight_filler {
      type: "msra"
    }
    bias_filler {
      type: "constant"
    }
  }
}
layer {
  name: "relu6"
  type: "ReLU"
  bottom: "conv6"
  top: "conv6"
}
layer {
  name: "conv7"
  type: "Convolution"
  bottom: "conv6"
  top: "conv7"
  param {
    lr_mult: 1
  }
  param {
    lr_mult: 0.1
  }
  convolution_param {
    num_output: 64
    pad: 1
    kernel_size: 3
    stride: 1
    weight_filler {
      type: "msra"
    }
    bias_filler {
      type: "constant"
    }
  }
}
layer {
  name: "relu7"
  type: "ReLU"
  bottom: "conv7"
  top: "conv7"
}
layer {
  name: "conv8"
  type: "Convolution"
  bottom: "conv7"
  top: "conv8"
  param {
    lr_mult: 1
  }
  param {
    lr_mult: 0.1
  }
  convolution_param {
    num_output: 64
    pad: 1
    kernel_size: 3
    stride: 1
    weight_filler {
      type: "msra"
    }
    bias_filler {
      type: "constant"
    }
  }
}
layer {
  name: "relu8"
  type: "ReLU"
  bottom: "conv8"
  top: "conv8"
}
layer {
  name: "conv9"
  type: "Convolution"
  bottom: "conv8"
  top: "conv9"
  param {
    lr_mult: 1
  }
  param {
    lr_mult: 0.1
  }
  convolution_param {
    num_output: 64
    pad: 1
    kernel_size: 3
    stride: 1
    weight_filler {
      type: "msra"
    }
    bias_filler {
      type: "constant"
    }
  }
}
layer {
  name: "relu9"
  type: "ReLU"
  bottom: "conv9"
  top: "conv9"
}
layer {
  name: "conv10"
  type: "Convolution"
  bottom: "conv9"
  top: "conv10"
  param {
    lr_mult: 1
  }
  param {
    lr_mult: 0.1
  }
  convolution_param {
    num_output: 64
    pad: 1
    kernel_size: 3
    stride: 1
    weight_filler {
      type: "msra"
    }
    bias_filler {
      type: "constant"
    }
  }
}
layer {
  name: "relu10"
  type: "ReLU"
  bottom: "conv10"
  top: "conv10"
}
layer {
  name: "conv11"
  type: "Convolution"
  bottom: "conv10"
  top: "conv11"
  param {
    lr_mult: 1
  }
  param {
    lr_mult: 0.1
  }
  convolution_param {
    num_output: 64
    pad: 1
    kernel_size: 3
    stride: 1
    weight_filler {
      type: "msra"
    }
    bias_filler {
      type: "constant"
    }
  }
}
layer {
  name: "relu11"
  type: "ReLU"
  bottom: "conv11"
  top: "conv11"
}
layer {
  name: "conv12"
  type: "Convolution"
  bottom: "conv11"
  top: "conv12"
  param {
    lr_mult: 1
  }
  param {
    lr_mult: 0.1
  }
  convolution_param {
    num_output: 64
    pad: 1
    kernel_size: 3
    stride: 1
    weight_filler {
      type: "msra"
    }
    bias_filler {
      type: "constant"
    }
  }
}
layer {
  name: "relu12"
  type: "ReLU"
  bottom: "conv12"
  top: "conv12"
}
layer {
  name: "conv13"
  type: "Convolution"
  bottom: "conv12"
  top: "conv13"
  param {
    lr_mult: 1
  }
  param {
    lr_mult: 0.1
  }
  convolution_param {
    num_output: 64
    pad: 1
    kernel_size: 3
    stride: 1
    weight_filler {
      type: "msra"
    }
    bias_filler {
      type: "constant"
    }
  }
}
layer {
  name: "relu13"
  type: "ReLU"
  bottom: "conv13"
  top: "conv13"
}
layer {
  name: "conv14"
  type: "Convolution"
  bottom: "conv13"
  top: "conv14"
  param {
    lr_mult: 1
  }
  param {
    lr_mult: 0.1
  }
  convolution_param {
    num_output: 64
    pad: 1
    kernel_size: 3
    stride: 1
    weight_filler {
      type: "msra"
    }
    bias_filler {
      type: "constant"
    }
  }
}
layer {
  name: "relu14"
  type: "ReLU"
  bottom: "conv14"
  top: "conv14"
}
layer {
  name: "conv15"
  type: "Convolution"
  bottom: "conv14"
  top: "conv15"
  param {
    lr_mult: 1
  }
  param {
    lr_mult: 0.1
  }
  convolution_param {
    num_output: 64
    pad: 1
    kernel_size: 3
    stride: 1
    weight_filler {
      type: "msra"
    }
    bias_filler {
      type: "constant"
    }
  }
}
layer {
  name: "relu15"
  type: "ReLU"
  bottom: "conv15"
  top: "conv15"
}
layer {
  name: "conv16"
  type: "Convolution"
  bottom: "conv15"
  top: "conv16"
  param {
    lr_mult: 1
  }
  param {
    lr_mult: 0.1
  }
  convolution_param {
    num_output: 64
    pad: 1
    kernel_size: 3
    stride: 1
    weight_filler {
      type: "msra"
    }
    bias_filler {
      type: "constant"
    }
  }
}
layer {
  name: "relu16"
  type: "ReLU"
  bottom: "conv16"
  top: "conv16"
}
layer {
  name: "conv17"
  type: "Convolution"
  bottom: "conv16"
  top: "conv17"
  param {
    lr_mult: 1
  }
  param {
    lr_mult: 0.1
  }
  convolution_param {
    num_output: 64
    pad: 1
    kernel_size: 3
    stride: 1
    weight_filler {
      type: "msra"
    }
    bias_filler {
      type: "constant"
    }
  }
}
layer {
  name: "relu17"
  type: "ReLU"
  bottom: "conv17"
  top: "conv17"
}
layer {
  name: "conv18"
  type: "Convolution"
  bottom: "conv17"
  top: "conv18"
  param {
    lr_mult: 1
  }
  param {
    lr_mult: 0.1
  }
  convolution_param {
    num_output: 64
    pad: 1
    kernel_size: 3
    stride: 1
    weight_filler {
      type: "msra"
    }
    bias_filler {
      type: "constant"
    }
  }
}
layer {
  name: "relu18"
  type: "ReLU"
  bottom: "conv18"
  top: "conv18"
}
layer {
  name: "conv19"
  type: "Convolution"
  bottom: "conv18"
  top: "conv19"
  param {
    lr_mult: 1
  }
  param {
    lr_mult: 0.1
  }
  convolution_param {
    num_output: 64
    pad: 1
    kernel_size: 3
    stride: 1
    weight_filler {
      type: "msra"
    }
    bias_filler {
      type: "constant"
    }
  }
}
layer {
  name: "relu19"
  type: "ReLU"
  bottom: "conv19"
  top: "conv19"
}
layer {
  name: "conv20"
  type: "Convolution"
  bottom: "conv19"
  top: "conv20"
  param {
    lr_mult: 1
  }
  param {
    lr_mult: 0.1
  }
  convolution_param {
    num_output: 1
    pad: 1
    kernel_size: 3
    stride: 1
    weight_filler {
      type: "msra"
    }
    bias_filler {
      type: "constant"
    }
  }
}
layer {
  name: "sum"
  type: "Eltwise"
  bottom: "data"
  bottom: "conv20"
  top: "sum"
  eltwise_param {
    operation: SUM
  }
}
layer {
  name: "loss"
  type: "EuclideanLoss"
  bottom: "sum"
  bottom: "label"
  top: "loss"
}
I0119 12:31:59.359462   473 layer_factory.hpp:77] Creating layer data
I0119 12:31:59.359475   473 net.cpp:100] Creating Layer data
I0119 12:31:59.359483   473 net.cpp:408] data -> data
I0119 12:31:59.359493   473 net.cpp:408] data -> label
I0119 12:31:59.359504   473 hdf5_data_layer.cpp:79] Loading list of HDF5 filenames from: examples/VDSR/test.txt
I0119 12:31:59.359525   473 hdf5_data_layer.cpp:93] Number of HDF5 files: 1
I0119 12:31:59.418094   473 net.cpp:150] Setting up data
I0119 12:31:59.418169   473 net.cpp:157] Top shape: 2 1 41 41 (3362)
I0119 12:31:59.418197   473 net.cpp:157] Top shape: 2 1 41 41 (3362)
I0119 12:31:59.418242   473 net.cpp:165] Memory required for data: 26896
I0119 12:31:59.418319   473 layer_factory.hpp:77] Creating layer data_data_0_split
I0119 12:31:59.418351   473 net.cpp:100] Creating Layer data_data_0_split
I0119 12:31:59.418371   473 net.cpp:434] data_data_0_split <- data
I0119 12:31:59.418398   473 net.cpp:408] data_data_0_split -> data_data_0_split_0
I0119 12:31:59.418428   473 net.cpp:408] data_data_0_split -> data_data_0_split_1
I0119 12:31:59.418501   473 net.cpp:150] Setting up data_data_0_split
I0119 12:31:59.418527   473 net.cpp:157] Top shape: 2 1 41 41 (3362)
I0119 12:31:59.418548   473 net.cpp:157] Top shape: 2 1 41 41 (3362)
I0119 12:31:59.418565   473 net.cpp:165] Memory required for data: 53792
I0119 12:31:59.418582   473 layer_factory.hpp:77] Creating layer conv1
I0119 12:31:59.418611   473 net.cpp:100] Creating Layer conv1
I0119 12:31:59.418632   473 net.cpp:434] conv1 <- data_data_0_split_0
I0119 12:31:59.418651   473 net.cpp:408] conv1 -> conv1
I0119 12:31:59.420377   473 net.cpp:150] Setting up conv1
I0119 12:31:59.420413   473 net.cpp:157] Top shape: 2 64 41 41 (215168)
I0119 12:31:59.420436   473 net.cpp:165] Memory required for data: 914464
I0119 12:31:59.420464   473 layer_factory.hpp:77] Creating layer relu1
I0119 12:31:59.420490   473 net.cpp:100] Creating Layer relu1
I0119 12:31:59.420511   473 net.cpp:434] relu1 <- conv1
I0119 12:31:59.420532   473 net.cpp:395] relu1 -> conv1 (in-place)
I0119 12:31:59.421138   473 net.cpp:150] Setting up relu1
I0119 12:31:59.421169   473 net.cpp:157] Top shape: 2 64 41 41 (215168)
I0119 12:31:59.421186   473 net.cpp:165] Memory required for data: 1775136
I0119 12:31:59.421203   473 layer_factory.hpp:77] Creating layer conv2
I0119 12:31:59.421228   473 net.cpp:100] Creating Layer conv2
I0119 12:31:59.421247   473 net.cpp:434] conv2 <- conv1
I0119 12:31:59.421270   473 net.cpp:408] conv2 -> conv2
I0119 12:31:59.426082   473 net.cpp:150] Setting up conv2
I0119 12:31:59.426120   473 net.cpp:157] Top shape: 2 64 41 41 (215168)
I0119 12:31:59.426139   473 net.cpp:165] Memory required for data: 2635808
I0119 12:31:59.426167   473 layer_factory.hpp:77] Creating layer relu2
I0119 12:31:59.426188   473 net.cpp:100] Creating Layer relu2
I0119 12:31:59.426206   473 net.cpp:434] relu2 <- conv2
I0119 12:31:59.426254   473 net.cpp:395] relu2 -> conv2 (in-place)
I0119 12:31:59.426476   473 net.cpp:150] Setting up relu2
I0119 12:31:59.426509   473 net.cpp:157] Top shape: 2 64 41 41 (215168)
I0119 12:31:59.426532   473 net.cpp:165] Memory required for data: 3496480
I0119 12:31:59.426561   473 layer_factory.hpp:77] Creating layer conv3
I0119 12:31:59.426589   473 net.cpp:100] Creating Layer conv3
I0119 12:31:59.426607   473 net.cpp:434] conv3 <- conv2
I0119 12:31:59.426635   473 net.cpp:408] conv3 -> conv3
I0119 12:31:59.430943   473 net.cpp:150] Setting up conv3
I0119 12:31:59.430984   473 net.cpp:157] Top shape: 2 64 41 41 (215168)
I0119 12:31:59.431008   473 net.cpp:165] Memory required for data: 4357152
I0119 12:31:59.431037   473 layer_factory.hpp:77] Creating layer relu3
I0119 12:31:59.431064   473 net.cpp:100] Creating Layer relu3
I0119 12:31:59.431087   473 net.cpp:434] relu3 <- conv3
I0119 12:31:59.431114   473 net.cpp:395] relu3 -> conv3 (in-place)
I0119 12:31:59.431915   473 net.cpp:150] Setting up relu3
I0119 12:31:59.431953   473 net.cpp:157] Top shape: 2 64 41 41 (215168)
I0119 12:31:59.431979   473 net.cpp:165] Memory required for data: 5217824
I0119 12:31:59.432003   473 layer_factory.hpp:77] Creating layer conv4
I0119 12:31:59.432034   473 net.cpp:100] Creating Layer conv4
I0119 12:31:59.432060   473 net.cpp:434] conv4 <- conv3
I0119 12:31:59.432085   473 net.cpp:408] conv4 -> conv4
I0119 12:31:59.436528   473 net.cpp:150] Setting up conv4
I0119 12:31:59.436573   473 net.cpp:157] Top shape: 2 64 41 41 (215168)
I0119 12:31:59.436597   473 net.cpp:165] Memory required for data: 6078496
I0119 12:31:59.436622   473 layer_factory.hpp:77] Creating layer relu4
I0119 12:31:59.436647   473 net.cpp:100] Creating Layer relu4
I0119 12:31:59.436668   473 net.cpp:434] relu4 <- conv4
I0119 12:31:59.436705   473 net.cpp:395] relu4 -> conv4 (in-place)
I0119 12:31:59.437265   473 net.cpp:150] Setting up relu4
I0119 12:31:59.437304   473 net.cpp:157] Top shape: 2 64 41 41 (215168)
I0119 12:31:59.437327   473 net.cpp:165] Memory required for data: 6939168
I0119 12:31:59.437348   473 layer_factory.hpp:77] Creating layer conv5
I0119 12:31:59.437376   473 net.cpp:100] Creating Layer conv5
I0119 12:31:59.437397   473 net.cpp:434] conv5 <- conv4
I0119 12:31:59.437422   473 net.cpp:408] conv5 -> conv5
I0119 12:31:59.443570   473 net.cpp:150] Setting up conv5
I0119 12:31:59.443611   473 net.cpp:157] Top shape: 2 64 41 41 (215168)
I0119 12:31:59.443632   473 net.cpp:165] Memory required for data: 7799840
I0119 12:31:59.443660   473 layer_factory.hpp:77] Creating layer relu5
I0119 12:31:59.443684   473 net.cpp:100] Creating Layer relu5
I0119 12:31:59.443711   473 net.cpp:434] relu5 <- conv5
I0119 12:31:59.443734   473 net.cpp:395] relu5 -> conv5 (in-place)
I0119 12:31:59.443974   473 net.cpp:150] Setting up relu5
I0119 12:31:59.444006   473 net.cpp:157] Top shape: 2 64 41 41 (215168)
I0119 12:31:59.444028   473 net.cpp:165] Memory required for data: 8660512
I0119 12:31:59.444049   473 layer_factory.hpp:77] Creating layer conv6
I0119 12:31:59.444078   473 net.cpp:100] Creating Layer conv6
I0119 12:31:59.444100   473 net.cpp:434] conv6 <- conv5
I0119 12:31:59.444125   473 net.cpp:408] conv6 -> conv6
I0119 12:31:59.447125   473 net.cpp:150] Setting up conv6
I0119 12:31:59.447144   473 net.cpp:157] Top shape: 2 64 41 41 (215168)
I0119 12:31:59.447152   473 net.cpp:165] Memory required for data: 9521184
I0119 12:31:59.447165   473 layer_factory.hpp:77] Creating layer relu6
I0119 12:31:59.447180   473 net.cpp:100] Creating Layer relu6
I0119 12:31:59.447204   473 net.cpp:434] relu6 <- conv6
I0119 12:31:59.447216   473 net.cpp:395] relu6 -> conv6 (in-place)
I0119 12:31:59.447571   473 net.cpp:150] Setting up relu6
I0119 12:31:59.447587   473 net.cpp:157] Top shape: 2 64 41 41 (215168)
I0119 12:31:59.447594   473 net.cpp:165] Memory required for data: 10381856
I0119 12:31:59.447602   473 layer_factory.hpp:77] Creating layer conv7
I0119 12:31:59.447618   473 net.cpp:100] Creating Layer conv7
I0119 12:31:59.447628   473 net.cpp:434] conv7 <- conv6
I0119 12:31:59.447640   473 net.cpp:408] conv7 -> conv7
I0119 12:31:59.449640   473 net.cpp:150] Setting up conv7
I0119 12:31:59.449657   473 net.cpp:157] Top shape: 2 64 41 41 (215168)
I0119 12:31:59.449666   473 net.cpp:165] Memory required for data: 11242528
I0119 12:31:59.449699   473 layer_factory.hpp:77] Creating layer relu7
I0119 12:31:59.449712   473 net.cpp:100] Creating Layer relu7
I0119 12:31:59.449719   473 net.cpp:434] relu7 <- conv7
I0119 12:31:59.449730   473 net.cpp:395] relu7 -> conv7 (in-place)
I0119 12:31:59.450069   473 net.cpp:150] Setting up relu7
I0119 12:31:59.450085   473 net.cpp:157] Top shape: 2 64 41 41 (215168)
I0119 12:31:59.450093   473 net.cpp:165] Memory required for data: 12103200
I0119 12:31:59.450099   473 layer_factory.hpp:77] Creating layer conv8
I0119 12:31:59.450132   473 net.cpp:100] Creating Layer conv8
I0119 12:31:59.450141   473 net.cpp:434] conv8 <- conv7
I0119 12:31:59.450153   473 net.cpp:408] conv8 -> conv8
I0119 12:31:59.452328   473 net.cpp:150] Setting up conv8
I0119 12:31:59.452347   473 net.cpp:157] Top shape: 2 64 41 41 (215168)
I0119 12:31:59.452354   473 net.cpp:165] Memory required for data: 12963872
I0119 12:31:59.452366   473 layer_factory.hpp:77] Creating layer relu8
I0119 12:31:59.452381   473 net.cpp:100] Creating Layer relu8
I0119 12:31:59.452406   473 net.cpp:434] relu8 <- conv8
I0119 12:31:59.452419   473 net.cpp:395] relu8 -> conv8 (in-place)
I0119 12:31:59.452607   473 net.cpp:150] Setting up relu8
I0119 12:31:59.452620   473 net.cpp:157] Top shape: 2 64 41 41 (215168)
I0119 12:31:59.452627   473 net.cpp:165] Memory required for data: 13824544
I0119 12:31:59.452635   473 layer_factory.hpp:77] Creating layer conv9
I0119 12:31:59.452652   473 net.cpp:100] Creating Layer conv9
I0119 12:31:59.452666   473 net.cpp:434] conv9 <- conv8
I0119 12:31:59.452694   473 net.cpp:408] conv9 -> conv9
I0119 12:31:59.454876   473 net.cpp:150] Setting up conv9
I0119 12:31:59.454893   473 net.cpp:157] Top shape: 2 64 41 41 (215168)
I0119 12:31:59.454901   473 net.cpp:165] Memory required for data: 14685216
I0119 12:31:59.454917   473 layer_factory.hpp:77] Creating layer relu9
I0119 12:31:59.454931   473 net.cpp:100] Creating Layer relu9
I0119 12:31:59.454938   473 net.cpp:434] relu9 <- conv9
I0119 12:31:59.454951   473 net.cpp:395] relu9 -> conv9 (in-place)
I0119 12:31:59.455302   473 net.cpp:150] Setting up relu9
I0119 12:31:59.455317   473 net.cpp:157] Top shape: 2 64 41 41 (215168)
I0119 12:31:59.455323   473 net.cpp:165] Memory required for data: 15545888
I0119 12:31:59.455332   473 layer_factory.hpp:77] Creating layer conv10
I0119 12:31:59.455348   473 net.cpp:100] Creating Layer conv10
I0119 12:31:59.455359   473 net.cpp:434] conv10 <- conv9
I0119 12:31:59.455369   473 net.cpp:408] conv10 -> conv10
I0119 12:31:59.457376   473 net.cpp:150] Setting up conv10
I0119 12:31:59.457393   473 net.cpp:157] Top shape: 2 64 41 41 (215168)
I0119 12:31:59.457401   473 net.cpp:165] Memory required for data: 16406560
I0119 12:31:59.457413   473 layer_factory.hpp:77] Creating layer relu10
I0119 12:31:59.457428   473 net.cpp:100] Creating Layer relu10
I0119 12:31:59.457437   473 net.cpp:434] relu10 <- conv10
I0119 12:31:59.457449   473 net.cpp:395] relu10 -> conv10 (in-place)
I0119 12:31:59.457794   473 net.cpp:150] Setting up relu10
I0119 12:31:59.457809   473 net.cpp:157] Top shape: 2 64 41 41 (215168)
I0119 12:31:59.457816   473 net.cpp:165] Memory required for data: 17267232
I0119 12:31:59.457823   473 layer_factory.hpp:77] Creating layer conv11
I0119 12:31:59.457855   473 net.cpp:100] Creating Layer conv11
I0119 12:31:59.457864   473 net.cpp:434] conv11 <- conv10
I0119 12:31:59.457875   473 net.cpp:408] conv11 -> conv11
I0119 12:31:59.460047   473 net.cpp:150] Setting up conv11
I0119 12:31:59.460064   473 net.cpp:157] Top shape: 2 64 41 41 (215168)
I0119 12:31:59.460072   473 net.cpp:165] Memory required for data: 18127904
I0119 12:31:59.460084   473 layer_factory.hpp:77] Creating layer relu11
I0119 12:31:59.460098   473 net.cpp:100] Creating Layer relu11
I0119 12:31:59.460108   473 net.cpp:434] relu11 <- conv11
I0119 12:31:59.460119   473 net.cpp:395] relu11 -> conv11 (in-place)
I0119 12:31:59.460304   473 net.cpp:150] Setting up relu11
I0119 12:31:59.460316   473 net.cpp:157] Top shape: 2 64 41 41 (215168)
I0119 12:31:59.460324   473 net.cpp:165] Memory required for data: 18988576
I0119 12:31:59.460330   473 layer_factory.hpp:77] Creating layer conv12
I0119 12:31:59.460346   473 net.cpp:100] Creating Layer conv12
I0119 12:31:59.460356   473 net.cpp:434] conv12 <- conv11
I0119 12:31:59.460367   473 net.cpp:408] conv12 -> conv12
I0119 12:31:59.462930   473 net.cpp:150] Setting up conv12
I0119 12:31:59.462945   473 net.cpp:157] Top shape: 2 64 41 41 (215168)
I0119 12:31:59.462954   473 net.cpp:165] Memory required for data: 19849248
I0119 12:31:59.462963   473 layer_factory.hpp:77] Creating layer relu12
I0119 12:31:59.462988   473 net.cpp:100] Creating Layer relu12
I0119 12:31:59.462998   473 net.cpp:434] relu12 <- conv12
I0119 12:31:59.463006   473 net.cpp:395] relu12 -> conv12 (in-place)
I0119 12:31:59.463331   473 net.cpp:150] Setting up relu12
I0119 12:31:59.463346   473 net.cpp:157] Top shape: 2 64 41 41 (215168)
I0119 12:31:59.463351   473 net.cpp:165] Memory required for data: 20709920
I0119 12:31:59.463359   473 layer_factory.hpp:77] Creating layer conv13
I0119 12:31:59.463377   473 net.cpp:100] Creating Layer conv13
I0119 12:31:59.463388   473 net.cpp:434] conv13 <- conv12
I0119 12:31:59.463397   473 net.cpp:408] conv13 -> conv13
I0119 12:31:59.465260   473 net.cpp:150] Setting up conv13
I0119 12:31:59.465276   473 net.cpp:157] Top shape: 2 64 41 41 (215168)
I0119 12:31:59.465282   473 net.cpp:165] Memory required for data: 21570592
I0119 12:31:59.465292   473 layer_factory.hpp:77] Creating layer relu13
I0119 12:31:59.465306   473 net.cpp:100] Creating Layer relu13
I0119 12:31:59.465325   473 net.cpp:434] relu13 <- conv13
I0119 12:31:59.465349   473 net.cpp:395] relu13 -> conv13 (in-place)
I0119 12:31:59.465661   473 net.cpp:150] Setting up relu13
I0119 12:31:59.465677   473 net.cpp:157] Top shape: 2 64 41 41 (215168)
I0119 12:31:59.465684   473 net.cpp:165] Memory required for data: 22431264
I0119 12:31:59.465692   473 layer_factory.hpp:77] Creating layer conv14
I0119 12:31:59.465708   473 net.cpp:100] Creating Layer conv14
I0119 12:31:59.465716   473 net.cpp:434] conv14 <- conv13
I0119 12:31:59.465726   473 net.cpp:408] conv14 -> conv14
I0119 12:31:59.467617   473 net.cpp:150] Setting up conv14
I0119 12:31:59.467633   473 net.cpp:157] Top shape: 2 64 41 41 (215168)
I0119 12:31:59.467639   473 net.cpp:165] Memory required for data: 23291936
I0119 12:31:59.467649   473 layer_factory.hpp:77] Creating layer relu14
I0119 12:31:59.467661   473 net.cpp:100] Creating Layer relu14
I0119 12:31:59.467684   473 net.cpp:434] relu14 <- conv14
I0119 12:31:59.467694   473 net.cpp:395] relu14 -> conv14 (in-place)
I0119 12:31:59.467854   473 net.cpp:150] Setting up relu14
I0119 12:31:59.467865   473 net.cpp:157] Top shape: 2 64 41 41 (215168)
I0119 12:31:59.467870   473 net.cpp:165] Memory required for data: 24152608
I0119 12:31:59.467877   473 layer_factory.hpp:77] Creating layer conv15
I0119 12:31:59.467895   473 net.cpp:100] Creating Layer conv15
I0119 12:31:59.467903   473 net.cpp:434] conv15 <- conv14
I0119 12:31:59.467913   473 net.cpp:408] conv15 -> conv15
I0119 12:31:59.469782   473 net.cpp:150] Setting up conv15
I0119 12:31:59.469797   473 net.cpp:157] Top shape: 2 64 41 41 (215168)
I0119 12:31:59.469805   473 net.cpp:165] Memory required for data: 25013280
I0119 12:31:59.469816   473 layer_factory.hpp:77] Creating layer relu15
I0119 12:31:59.469828   473 net.cpp:100] Creating Layer relu15
I0119 12:31:59.469837   473 net.cpp:434] relu15 <- conv15
I0119 12:31:59.469848   473 net.cpp:395] relu15 -> conv15 (in-place)
I0119 12:31:59.470162   473 net.cpp:150] Setting up relu15
I0119 12:31:59.470176   473 net.cpp:157] Top shape: 2 64 41 41 (215168)
I0119 12:31:59.470182   473 net.cpp:165] Memory required for data: 25873952
I0119 12:31:59.470190   473 layer_factory.hpp:77] Creating layer conv16
I0119 12:31:59.470211   473 net.cpp:100] Creating Layer conv16
I0119 12:31:59.470232   473 net.cpp:434] conv16 <- conv15
I0119 12:31:59.470242   473 net.cpp:408] conv16 -> conv16
I0119 12:31:59.471966   473 net.cpp:150] Setting up conv16
I0119 12:31:59.471982   473 net.cpp:157] Top shape: 2 64 41 41 (215168)
I0119 12:31:59.471989   473 net.cpp:165] Memory required for data: 26734624
I0119 12:31:59.472000   473 layer_factory.hpp:77] Creating layer relu16
I0119 12:31:59.472013   473 net.cpp:100] Creating Layer relu16
I0119 12:31:59.472023   473 net.cpp:434] relu16 <- conv16
I0119 12:31:59.472045   473 net.cpp:395] relu16 -> conv16 (in-place)
I0119 12:31:59.472362   473 net.cpp:150] Setting up relu16
I0119 12:31:59.472375   473 net.cpp:157] Top shape: 2 64 41 41 (215168)
I0119 12:31:59.472381   473 net.cpp:165] Memory required for data: 27595296
I0119 12:31:59.472389   473 layer_factory.hpp:77] Creating layer conv17
I0119 12:31:59.472404   473 net.cpp:100] Creating Layer conv17
I0119 12:31:59.472414   473 net.cpp:434] conv17 <- conv16
I0119 12:31:59.472424   473 net.cpp:408] conv17 -> conv17
I0119 12:31:59.474305   473 net.cpp:150] Setting up conv17
I0119 12:31:59.474320   473 net.cpp:157] Top shape: 2 64 41 41 (215168)
I0119 12:31:59.474326   473 net.cpp:165] Memory required for data: 28455968
I0119 12:31:59.474344   473 layer_factory.hpp:77] Creating layer relu17
I0119 12:31:59.474355   473 net.cpp:100] Creating Layer relu17
I0119 12:31:59.474362   473 net.cpp:434] relu17 <- conv17
I0119 12:31:59.474372   473 net.cpp:395] relu17 -> conv17 (in-place)
I0119 12:31:59.474535   473 net.cpp:150] Setting up relu17
I0119 12:31:59.474546   473 net.cpp:157] Top shape: 2 64 41 41 (215168)
I0119 12:31:59.474553   473 net.cpp:165] Memory required for data: 29316640
I0119 12:31:59.474560   473 layer_factory.hpp:77] Creating layer conv18
I0119 12:31:59.474582   473 net.cpp:100] Creating Layer conv18
I0119 12:31:59.474593   473 net.cpp:434] conv18 <- conv17
I0119 12:31:59.474602   473 net.cpp:408] conv18 -> conv18
I0119 12:31:59.476477   473 net.cpp:150] Setting up conv18
I0119 12:31:59.476492   473 net.cpp:157] Top shape: 2 64 41 41 (215168)
I0119 12:31:59.476498   473 net.cpp:165] Memory required for data: 30177312
I0119 12:31:59.476510   473 layer_factory.hpp:77] Creating layer relu18
I0119 12:31:59.476522   473 net.cpp:100] Creating Layer relu18
I0119 12:31:59.476531   473 net.cpp:434] relu18 <- conv18
I0119 12:31:59.476541   473 net.cpp:395] relu18 -> conv18 (in-place)
I0119 12:31:59.476858   473 net.cpp:150] Setting up relu18
I0119 12:31:59.476872   473 net.cpp:157] Top shape: 2 64 41 41 (215168)
I0119 12:31:59.476878   473 net.cpp:165] Memory required for data: 31037984
I0119 12:31:59.476886   473 layer_factory.hpp:77] Creating layer conv19
I0119 12:31:59.476902   473 net.cpp:100] Creating Layer conv19
I0119 12:31:59.476912   473 net.cpp:434] conv19 <- conv18
I0119 12:31:59.476922   473 net.cpp:408] conv19 -> conv19
I0119 12:31:59.479053   473 net.cpp:150] Setting up conv19
I0119 12:31:59.479068   473 net.cpp:157] Top shape: 2 64 41 41 (215168)
I0119 12:31:59.479074   473 net.cpp:165] Memory required for data: 31898656
I0119 12:31:59.479085   473 layer_factory.hpp:77] Creating layer relu19
I0119 12:31:59.479099   473 net.cpp:100] Creating Layer relu19
I0119 12:31:59.479110   473 net.cpp:434] relu19 <- conv19
I0119 12:31:59.479132   473 net.cpp:395] relu19 -> conv19 (in-place)
I0119 12:31:59.479449   473 net.cpp:150] Setting up relu19
I0119 12:31:59.479462   473 net.cpp:157] Top shape: 2 64 41 41 (215168)
I0119 12:31:59.479468   473 net.cpp:165] Memory required for data: 32759328
I0119 12:31:59.479475   473 layer_factory.hpp:77] Creating layer conv20
I0119 12:31:59.479490   473 net.cpp:100] Creating Layer conv20
I0119 12:31:59.479501   473 net.cpp:434] conv20 <- conv19
I0119 12:31:59.479511   473 net.cpp:408] conv20 -> conv20
I0119 12:31:59.480525   473 net.cpp:150] Setting up conv20
I0119 12:31:59.480540   473 net.cpp:157] Top shape: 2 1 41 41 (3362)
I0119 12:31:59.480547   473 net.cpp:165] Memory required for data: 32772776
I0119 12:31:59.480558   473 layer_factory.hpp:77] Creating layer sum
I0119 12:31:59.480572   473 net.cpp:100] Creating Layer sum
I0119 12:31:59.480581   473 net.cpp:434] sum <- data_data_0_split_1
I0119 12:31:59.480592   473 net.cpp:434] sum <- conv20
I0119 12:31:59.480602   473 net.cpp:408] sum -> sum
I0119 12:31:59.480641   473 net.cpp:150] Setting up sum
I0119 12:31:59.480651   473 net.cpp:157] Top shape: 2 1 41 41 (3362)
I0119 12:31:59.480656   473 net.cpp:165] Memory required for data: 32786224
I0119 12:31:59.480677   473 layer_factory.hpp:77] Creating layer loss
I0119 12:31:59.480690   473 net.cpp:100] Creating Layer loss
I0119 12:31:59.480697   473 net.cpp:434] loss <- sum
I0119 12:31:59.480707   473 net.cpp:434] loss <- label
I0119 12:31:59.480717   473 net.cpp:408] loss -> loss
I0119 12:31:59.480779   473 net.cpp:150] Setting up loss
…
